…
Average actions of items: 1.6639088222878853
The number of inters: 39418
The sparsity of the dataset: 99.97778789450958%
Tue 20 Jan 2026 04:11:52 INFO 
====Testing====
Music4All
The number of users: 7662
Average actions of users: 5.498825371965545
The number of items: 24618
Average actions of items: 1.7114306604923226
The number of inters: 42132
The sparsity of the dataset: 99.97766339519065%
Tue 20 Jan 2026 04:11:55 INFO 

=================================


Tue 20 Jan 2026 04:11:55 INFO =========1/1: Parameters:['seed', 'n_layers', 'reg_weight', 'dropout']=(999, 1, 0.1, 0.4)=======
Tue 20 Jan 2026 04:11:58 INFO BM3(
  (user_embedding): Embedding(14127, 64)
  (item_id_embedding): Embedding(99596, 64)
  (predictor): Linear(in_features=64, out_features=64, bias=True)
  (reg_loss): EmbLoss()
  (text_embedding): Embedding(99596, 384)
  (text_trs): Linear(in_features=384, out_features=64, bias=True)
)
Trainable parameters: 45551936
Tue 20 Jan 2026 04:11:58 INFO Mixed Precision Training (FP16) enabled - expect ~40-50% memory reduction
Tue 20 Jan 2026 04:11:59 INFO ✅ Model compiled with torch.compile - expect ~20-30% speedup after first epoch
Tue 20 Jan 2026 04:11:59 INFO Initialized tot_item_num: 99596
Tue 20 Jan 2026 04:11:59 INFO Computing item popularity from training data...
…
Average actions of items: 1.6639088222878853
The number of inters: 39418
The sparsity of the dataset: 99.97778789450958%
Tue 20 Jan 2026 05:05:42 INFO 
====Testing====
Music4All
The number of users: 7662
Average actions of users: 5.498825371965545
The number of items: 24618
Average actions of items: 1.7114306604923226
The number of inters: 42132
The sparsity of the dataset: 99.97766339519065%
Tue 20 Jan 2026 05:05:46 INFO 

=================================


Tue 20 Jan 2026 05:05:46 INFO =========1/1: Parameters:['seed', 'n_layers', 'reg_weight', 'dropout']=(999, 1, 0.1, 0.4)=======
Tue 20 Jan 2026 05:05:51 INFO BM3(
  (user_embedding): Embedding(14127, 64)
  (item_id_embedding): Embedding(99596, 64)
  (predictor): Linear(in_features=64, out_features=64, bias=True)
  (reg_loss): EmbLoss()
  (image_embedding): Embedding(99596, 1024)
  (image_trs): Linear(in_features=1024, out_features=64, bias=True)
  (text_embedding): Embedding(99596, 384)
  (text_trs): Linear(in_features=384, out_features=64, bias=True)
)
Trainable parameters: 147603840
Tue 20 Jan 2026 05:05:51 INFO Mixed Precision Training (FP16) enabled - expect ~40-50% memory reduction
Tue 20 Jan 2026 05:05:51 INFO ✅ Model compiled with torch.compile - expect ~20-30% speedup after first epoch
Tue 20 Jan 2026 05:05:51 INFO Initialized tot_item_num: 99596
Tue 20 Jan 2026 05:05:51 INFO Computing item popularity from training data...
…
Average actions of items: 1.6639088222878853
The number of inters: 39418
The sparsity of the dataset: 99.97778789450958%
Tue 20 Jan 2026 06:35:08 INFO 
====Testing====
Music4All
The number of users: 7662
Average actions of users: 5.498825371965545
The number of items: 24618
Average actions of items: 1.7114306604923226
The number of inters: 42132
The sparsity of the dataset: 99.97766339519065%
Tue 20 Jan 2026 06:35:11 INFO 

=================================


Tue 20 Jan 2026 06:35:11 INFO =========1/1: Parameters:['seed', 'n_layers', 'reg_weight', 'dropout']=(999, 1, 0.1, 0.4)=======
Tue 20 Jan 2026 06:35:15 INFO BM3(
  (user_embedding): Embedding(14127, 64)
  (item_id_embedding): Embedding(99596, 64)
  (predictor): Linear(in_features=64, out_features=64, bias=True)
  (reg_loss): EmbLoss()
  (image_embedding): Embedding(99596, 1024)
  (image_trs): Linear(in_features=1024, out_features=64, bias=True)
)
Trainable parameters: 109334336
Tue 20 Jan 2026 06:35:15 INFO Mixed Precision Training (FP16) enabled - expect ~40-50% memory reduction
Tue 20 Jan 2026 06:35:15 INFO ✅ Model compiled with torch.compile - expect ~20-30% speedup after first epoch
Tue 20 Jan 2026 06:35:15 INFO Initialized tot_item_num: 99596
Tue 20 Jan 2026 06:35:15 INFO Computing item popularity from training data...
…
