…
The number of inters: 505151
The sparsity of the dataset: 99.93943213315913%
Sat 17 Jan 2026 23:54:24 INFO 
====Testing====
Music4All
The number of users: 14125
Average actions of users: 36.25819469026548
The number of items: 59639
Average actions of items: 8.587451164506447
The number of inters: 512147
The sparsity of the dataset: 99.93920388556101%
Sat 17 Jan 2026 23:54:29 INFO 

=================================


Sat 17 Jan 2026 23:54:29 INFO =========1/1: Parameters:['seed', 'n_layers', 'reg_weight', 'dropout']=(999, 1, 0.1, 0.4)=======
Sat 17 Jan 2026 23:54:31 INFO BM3(
  (user_embedding): Embedding(14125, 64)
  (item_id_embedding): Embedding(80735, 64)
  (predictor): Linear(in_features=64, out_features=64, bias=True)
  (reg_loss): EmbLoss()
  (text_embedding): Embedding(80735, 384)
  (text_trs): Linear(in_features=384, out_features=64, bias=True)
)
Trainable parameters: 37102080
Sat 17 Jan 2026 23:54:32 INFO Mixed Precision Training (FP16) enabled - expect ~40-50% memory reduction
Sat 17 Jan 2026 23:54:32 INFO ✅ Model compiled with torch.compile - expect ~20-30% speedup after first epoch
Sat 17 Jan 2026 23:54:32 INFO Initialized tot_item_num: 80735
Sat 17 Jan 2026 23:55:32 INFO Epoch 0 training [time: 59.31s, Train loss: 2089.9351]
…
The number of inters: 505151
The sparsity of the dataset: 99.93943213315913%
Sun 18 Jan 2026 01:00:58 INFO 
====Testing====
Music4All
The number of users: 14125
Average actions of users: 36.25819469026548
The number of items: 59639
Average actions of items: 8.587451164506447
The number of inters: 512147
The sparsity of the dataset: 99.93920388556101%
Sun 18 Jan 2026 01:01:02 INFO 

=================================


Sun 18 Jan 2026 01:01:02 INFO =========1/1: Parameters:['seed', 'n_layers', 'reg_weight', 'dropout']=(999, 1, 0.1, 0.4)=======
Sun 18 Jan 2026 01:01:05 INFO BM3(
  (user_embedding): Embedding(14125, 64)
  (item_id_embedding): Embedding(80735, 64)
  (predictor): Linear(in_features=64, out_features=64, bias=True)
  (reg_loss): EmbLoss()
  (image_embedding): Embedding(80735, 1024)
  (image_trs): Linear(in_features=1024, out_features=64, bias=True)
)
Trainable parameters: 88813440
Sun 18 Jan 2026 01:01:05 INFO Mixed Precision Training (FP16) enabled - expect ~40-50% memory reduction
Sun 18 Jan 2026 01:01:05 INFO ✅ Model compiled with torch.compile - expect ~20-30% speedup after first epoch
Sun 18 Jan 2026 01:01:05 INFO Initialized tot_item_num: 80735
Sun 18 Jan 2026 01:02:28 INFO Epoch 0 training [time: 82.96s, Train loss: 1951.5146]
…
