…
The number of inters: 505151
The sparsity of the dataset: 99.93943213315913%
Sun 11 Jan 2026 23:59:50 INFO 
====Testing====
Music4All
The number of users: 14125
Average actions of users: 36.25819469026548
The number of items: 59639
Average actions of items: 8.587451164506447
The number of inters: 512147
The sparsity of the dataset: 99.93920388556101%
Sun 11 Jan 2026 23:59:54 INFO 

=================================


Sun 11 Jan 2026 23:59:54 INFO =========1/1: Parameters:['seed', 'aggr_mode', 'reg_weight', 'learning_rate']=(999, 'add', 0.001, 0.0001)=======
Sun 11 Jan 2026 23:59:58 INFO DRAGON(
  (MLP_v): Linear(in_features=64, out_features=64, bias=False)
  (MLP_t): Linear(in_features=64, out_features=64, bias=False)
  (image_embedding): Embedding(80735, 1024)
  (image_trs): Linear(in_features=1024, out_features=64, bias=True)
  (text_embedding): Embedding(80735, 384)
  (text_trs): Linear(in_features=384, out_features=64, bias=True)
  (MLP_user): Linear(in_features=128, out_features=64, bias=True)
  (v_gcn): GCN(
    (MLP): Linear(in_features=1024, out_features=128, bias=True)
    (MLP_1): Linear(in_features=128, out_features=64, bias=True)
    (conv_embed_1): Base_gcn(64, 64)
  )
  (t_gcn): GCN(
    (MLP): Linear(in_features=384, out_features=128, bias=True)
    (MLP_1): Linear(in_features=128, out_features=64, bias=True)
    (conv_embed_1): Base_gcn(64, 64)
  )
  (user_graph): User_Graph_sample()
  (iladt_loss): ILADTLoss(
    (i2t_map): Linear(in_features=64, out_features=64, bias=False)
    (t2i_map): Linear(in_features=64, out_features=64, bias=False)
    (i2d_map): Linear(in_features=64, out_features=64, bias=False)
    (d2i_map): Linear(in_features=64, out_features=64, bias=False)
    (t2d_map): Linear(in_features=64, out_features=64, bias=False)
    (d2t_map): Linear(in_features=64, out_features=64, bias=False)
  )
  (cla_loss): CLALoss(
    (feat2code): Linear(in_features=64, out_features=10, bias=False)
    (ii2code): Linear(in_features=64, out_features=10, bias=False)
  )
)
Trainable parameters: 116002138.0
Sun 11 Jan 2026 23:59:59 INFO Mixed Precision Training (FP16) enabled - expect ~40-50% memory reduction
Mon 12 Jan 2026 00:00:00 INFO ✅ Model compiled with torch.compile - expect ~20-30% speedup after first epoch
Mon 12 Jan 2026 00:00:00 INFO Initialized tot_item_num: 80735
Mon 12 Jan 2026 00:17:17 INFO Epoch 0 training [time: 1037.65s, Train loss: 646.5645]
…
