…
The number of inters: 247804
The sparsity of the dataset: 99.82336385841238%
Mon 19 Jan 2026 06:52:20 INFO 
====Testing====
Music4All
The number of users: 7073
Average actions of users: 35.054008200197934
The number of items: 15797
Average actions of items: 15.695195290244984
The number of inters: 247937
The sparsity of the dataset: 99.77809705513579%
Mon 19 Jan 2026 06:52:23 INFO 

=================================


Mon 19 Jan 2026 06:52:23 INFO =========1/1: Parameters:['seed', 'aggr_mode', 'reg_weight', 'learning_rate']=(999, 'add', 0.001, 0.0001)=======
Mon 19 Jan 2026 07:41:12 INFO DRAGON(
  (MLP_v): Linear(in_features=64, out_features=64, bias=False)
  (MLP_t): Linear(in_features=64, out_features=64, bias=False)
  (image_embedding): Embedding(99596, 1024)
  (image_trs): Linear(in_features=1024, out_features=64, bias=True)
  (text_embedding): Embedding(99596, 384)
  (text_trs): Linear(in_features=384, out_features=64, bias=True)
  (MLP_user): Linear(in_features=128, out_features=64, bias=True)
  (v_gcn): GCN(
    (MLP): Linear(in_features=1024, out_features=128, bias=True)
    (MLP_1): Linear(in_features=128, out_features=64, bias=True)
    (conv_embed_1): Base_gcn(64, 64)
  )
  (t_gcn): GCN(
    (MLP): Linear(in_features=384, out_features=128, bias=True)
    (MLP_1): Linear(in_features=128, out_features=64, bias=True)
    (conv_embed_1): Base_gcn(64, 64)
  )
  (user_graph): User_Graph_sample()
)
Trainable parameters: 142570550
Mon 19 Jan 2026 07:41:13 INFO Mixed Precision Training (FP16) enabled - expect ~40-50% memory reduction
Mon 19 Jan 2026 07:41:16 INFO ✅ Model compiled with torch.compile - expect ~20-30% speedup after first epoch
Mon 19 Jan 2026 07:41:16 INFO Initialized tot_item_num: 99596
…
