…
The number of inters: 39418
The sparsity of the dataset: 99.97778789450958%
Mon 12 Jan 2026 17:24:29 INFO 
====Testing====
Music4All
The number of users: 7662
Average actions of users: 5.498825371965545
The number of items: 24618
Average actions of items: 1.7114306604923226
The number of inters: 42132
The sparsity of the dataset: 99.97766339519065%
Mon 12 Jan 2026 17:24:32 INFO 

=================================


Mon 12 Jan 2026 17:24:32 INFO =========1/1: Parameters:['seed', 'aggr_mode', 'reg_weight', 'learning_rate']=(999, 'add', 0.001, 0.0001)=======
Mon 12 Jan 2026 17:24:37 INFO DRAGON(
  (MLP_v): Linear(in_features=64, out_features=64, bias=False)
  (MLP_t): Linear(in_features=64, out_features=64, bias=False)
  (text_embedding): Embedding(99596, 384)
  (text_trs): Linear(in_features=384, out_features=64, bias=True)
  (MLP_user): Linear(in_features=128, out_features=64, bias=True)
  (t_gcn): GCN(
    (MLP): Linear(in_features=384, out_features=128, bias=True)
    (MLP_1): Linear(in_features=128, out_features=64, bias=True)
    (conv_embed_1): Base_gcn(64, 64)
  )
  (user_graph): User_Graph_sample()
)
Trainable parameters: 39475062
Mon 12 Jan 2026 17:24:37 INFO Mixed Precision Training (FP16) enabled - expect ~40-50% memory reduction
Mon 12 Jan 2026 17:24:38 INFO ✅ Model compiled with torch.compile - expect ~20-30% speedup after first epoch
Mon 12 Jan 2026 17:24:38 INFO Initialized tot_item_num: 99596
…
The number of inters: 39418
The sparsity of the dataset: 99.97778789450958%
Mon 12 Jan 2026 20:36:26 INFO 
====Testing====
Music4All
The number of users: 7662
Average actions of users: 5.498825371965545
The number of items: 24618
Average actions of items: 1.7114306604923226
The number of inters: 42132
The sparsity of the dataset: 99.97766339519065%
Mon 12 Jan 2026 20:36:28 INFO 

=================================


Mon 12 Jan 2026 20:36:28 INFO =========1/1: Parameters:['seed', 'aggr_mode', 'reg_weight', 'learning_rate']=(999, 'add', 0.001, 0.0001)=======
Mon 12 Jan 2026 20:36:32 INFO DRAGON(
  (MLP_v): Linear(in_features=64, out_features=64, bias=False)
  (MLP_t): Linear(in_features=64, out_features=64, bias=False)
  (image_embedding): Embedding(99596, 1024)
  (image_trs): Linear(in_features=1024, out_features=64, bias=True)
  (MLP_user): Linear(in_features=128, out_features=64, bias=True)
  (v_gcn): GCN(
    (MLP): Linear(in_features=1024, out_features=128, bias=True)
    (MLP_1): Linear(in_features=128, out_features=64, bias=True)
    (conv_embed_1): Base_gcn(64, 64)
  )
  (user_graph): User_Graph_sample()
)
Trainable parameters: 103339382
Mon 12 Jan 2026 20:36:32 INFO Mixed Precision Training (FP16) enabled - expect ~40-50% memory reduction
Mon 12 Jan 2026 20:36:32 INFO ✅ Model compiled with torch.compile - expect ~20-30% speedup after first epoch
Mon 12 Jan 2026 20:36:32 INFO Initialized tot_item_num: 99596
…
The number of inters: 39418
The sparsity of the dataset: 99.97778789450958%
Tue 13 Jan 2026 04:00:18 INFO 
====Testing====
Music4All
The number of users: 7662
Average actions of users: 5.498825371965545
The number of items: 24618
Average actions of items: 1.7114306604923226
The number of inters: 42132
The sparsity of the dataset: 99.97766339519065%
Tue 13 Jan 2026 04:00:21 INFO 

=================================


Tue 13 Jan 2026 04:00:21 INFO =========1/1: Parameters:['seed', 'aggr_mode', 'reg_weight', 'learning_rate']=(999, 'add', 0.001, 0.0001)=======
Tue 13 Jan 2026 04:00:24 INFO DRAGON(
  (MLP_v): Linear(in_features=64, out_features=64, bias=False)
  (MLP_t): Linear(in_features=64, out_features=64, bias=False)
  (image_embedding): Embedding(99596, 1024)
  (image_trs): Linear(in_features=1024, out_features=64, bias=True)
  (text_embedding): Embedding(99596, 384)
  (text_trs): Linear(in_features=384, out_features=64, bias=True)
  (MLP_user): Linear(in_features=128, out_features=64, bias=True)
  (v_gcn): GCN(
    (MLP): Linear(in_features=1024, out_features=128, bias=True)
    (MLP_1): Linear(in_features=128, out_features=64, bias=True)
    (conv_embed_1): Base_gcn(64, 64)
  )
  (t_gcn): GCN(
    (MLP): Linear(in_features=384, out_features=128, bias=True)
    (MLP_1): Linear(in_features=128, out_features=64, bias=True)
    (conv_embed_1): Base_gcn(64, 64)
  )
  (user_graph): User_Graph_sample()
)
Trainable parameters: 142570550
Tue 13 Jan 2026 04:00:24 INFO Mixed Precision Training (FP16) enabled - expect ~40-50% memory reduction
Tue 13 Jan 2026 04:00:24 INFO ✅ Model compiled with torch.compile - expect ~20-30% speedup after first epoch
Tue 13 Jan 2026 04:00:24 INFO Initialized tot_item_num: 99596
…
The number of inters: 39418
The sparsity of the dataset: 99.97778789450958%
Tue 13 Jan 2026 04:00:34 INFO 
====Testing====
Music4All
The number of users: 7662
Average actions of users: 5.498825371965545
The number of items: 24618
Average actions of items: 1.7114306604923226
The number of inters: 42132
The sparsity of the dataset: 99.97766339519065%
Tue 13 Jan 2026 04:00:37 INFO 

=================================


Tue 13 Jan 2026 04:00:37 INFO =========1/1: Parameters:['seed', 'aggr_mode', 'reg_weight', 'learning_rate']=(999, 'add', 0.001, 0.0001)=======
Tue 13 Jan 2026 04:00:40 INFO DRAGON(
  (MLP_v): Linear(in_features=64, out_features=64, bias=False)
  (MLP_t): Linear(in_features=64, out_features=64, bias=False)
  (image_embedding): Embedding(99596, 1024)
  (image_trs): Linear(in_features=1024, out_features=64, bias=True)
  (text_embedding): Embedding(99596, 384)
  (text_trs): Linear(in_features=384, out_features=64, bias=True)
  (MLP_user): Linear(in_features=128, out_features=64, bias=True)
  (v_gcn): GCN(
    (MLP): Linear(in_features=1024, out_features=128, bias=True)
    (MLP_1): Linear(in_features=128, out_features=64, bias=True)
    (conv_embed_1): Base_gcn(64, 64)
  )
  (t_gcn): GCN(
    (MLP): Linear(in_features=384, out_features=128, bias=True)
    (MLP_1): Linear(in_features=128, out_features=64, bias=True)
    (conv_embed_1): Base_gcn(64, 64)
  )
  (user_graph): User_Graph_sample()
  (iladt_loss): ILADTLoss(
    (i2t_map): Linear(in_features=64, out_features=64, bias=False)
    (t2i_map): Linear(in_features=64, out_features=64, bias=False)
    (i2d_map): Linear(in_features=64, out_features=64, bias=False)
    (d2i_map): Linear(in_features=64, out_features=64, bias=False)
    (t2d_map): Linear(in_features=64, out_features=64, bias=False)
    (d2t_map): Linear(in_features=64, out_features=64, bias=False)
  )
  (cla_loss): CLALoss(
    (feat2code): Linear(in_features=64, out_features=10, bias=False)
    (ii2code): Linear(in_features=64, out_features=10, bias=False)
  )
)
Trainable parameters: 142596408.0
Tue 13 Jan 2026 04:00:40 INFO Mixed Precision Training (FP16) enabled - expect ~40-50% memory reduction
Tue 13 Jan 2026 04:00:40 INFO ✅ Model compiled with torch.compile - expect ~20-30% speedup after first epoch
Tue 13 Jan 2026 04:00:40 INFO Initialized tot_item_num: 99596
Tue 13 Jan 2026 04:00:40 INFO Computing item popularity from training data...
…
