…
The number of inters: 39418
The sparsity of the dataset: 99.97778789450958%
Sun 18 Jan 2026 12:49:39 INFO 
====Testing====
Music4All
The number of users: 7662
Average actions of users: 5.498825371965545
The number of items: 24618
Average actions of items: 1.7114306604923226
The number of inters: 42132
The sparsity of the dataset: 99.97766339519065%
Sun 18 Jan 2026 12:49:42 INFO 

=================================


Sun 18 Jan 2026 12:49:42 INFO =========1/1: Parameters:['seed', 'aggr_mode', 'reg_weight', 'learning_rate']=(999, 'add', 0.001, 0.0001)=======
Sun 18 Jan 2026 12:49:57 INFO DRAGON(
  (MLP_v): Linear(in_features=64, out_features=64, bias=False)
  (MLP_t): Linear(in_features=64, out_features=64, bias=False)
  (image_embedding): Embedding(99596, 1024)
  (image_trs): Linear(in_features=1024, out_features=64, bias=True)
  (text_embedding): Embedding(99596, 384)
  (text_trs): Linear(in_features=384, out_features=64, bias=True)
  (MLP_user): Linear(in_features=128, out_features=64, bias=True)
  (v_gcn): GCN(
    (MLP): Linear(in_features=1024, out_features=128, bias=True)
    (MLP_1): Linear(in_features=128, out_features=64, bias=True)
    (conv_embed_1): Base_gcn(64, 64)
  )
  (t_gcn): GCN(
    (MLP): Linear(in_features=384, out_features=128, bias=True)
    (MLP_1): Linear(in_features=128, out_features=64, bias=True)
    (conv_embed_1): Base_gcn(64, 64)
  )
  (user_graph): User_Graph_sample()
)
Trainable parameters: 142570550
Sun 18 Jan 2026 12:49:58 INFO Mixed Precision Training (FP16) enabled - expect ~40-50% memory reduction
Sun 18 Jan 2026 12:49:59 INFO ✅ Model compiled with torch.compile - expect ~20-30% speedup after first epoch
Sun 18 Jan 2026 12:49:59 INFO Initialized tot_item_num: 99596
…
