…
The number of inters: 39418
The sparsity of the dataset: 99.97778789450958%
Thu 15 Jan 2026 21:18:26 INFO 
====Testing====
Music4All
The number of users: 7662
Average actions of users: 5.498825371965545
The number of items: 24618
Average actions of items: 1.7114306604923226
The number of inters: 42132
The sparsity of the dataset: 99.97766339519065%
Thu 15 Jan 2026 21:18:29 INFO 

=================================


Thu 15 Jan 2026 21:18:29 INFO =========1/1: Parameters:['seed', 'aggr_mode', 'reg_weight', 'learning_rate']=(999, 'add', 0.001, 0.0001)=======
Thu 15 Jan 2026 22:08:41 INFO DRAGON(
  (MLP_v): Linear(in_features=64, out_features=64, bias=False)
  (MLP_t): Linear(in_features=64, out_features=64, bias=False)
  (image_embedding): Embedding(99596, 1024)
  (image_trs): Linear(in_features=1024, out_features=64, bias=True)
  (text_embedding): Embedding(99596, 384)
  (text_trs): Linear(in_features=384, out_features=64, bias=True)
  (MLP_user): Linear(in_features=128, out_features=64, bias=True)
  (v_gcn): GCN(
    (MLP): Linear(in_features=1024, out_features=128, bias=True)
    (MLP_1): Linear(in_features=128, out_features=64, bias=True)
    (conv_embed_1): Base_gcn(64, 64)
  )
  (t_gcn): GCN(
    (MLP): Linear(in_features=384, out_features=128, bias=True)
    (MLP_1): Linear(in_features=128, out_features=64, bias=True)
    (conv_embed_1): Base_gcn(64, 64)
  )
  (user_graph): User_Graph_sample()
)
Trainable parameters: 142570550
Thu 15 Jan 2026 22:08:42 INFO Mixed Precision Training (FP16) enabled - expect ~40-50% memory reduction
Thu 15 Jan 2026 22:08:44 INFO ✅ Model compiled with torch.compile - expect ~20-30% speedup after first epoch
Thu 15 Jan 2026 22:08:44 INFO Initialized tot_item_num: 99596
…
The number of inters: 39418
The sparsity of the dataset: 99.97778789450958%
Fri 16 Jan 2026 10:14:26 INFO 
====Testing====
Music4All
The number of users: 7662
Average actions of users: 5.498825371965545
The number of items: 24618
Average actions of items: 1.7114306604923226
The number of inters: 42132
The sparsity of the dataset: 99.97766339519065%
Fri 16 Jan 2026 10:14:29 INFO 

=================================


Fri 16 Jan 2026 10:14:29 INFO =========1/1: Parameters:['seed', 'aggr_mode', 'reg_weight', 'learning_rate']=(999, 'add', 0.001, 0.0001)=======
Fri 16 Jan 2026 10:14:35 INFO DRAGON(
  (MLP_v): Linear(in_features=64, out_features=64, bias=False)
  (MLP_t): Linear(in_features=64, out_features=64, bias=False)
  (image_embedding): Embedding(99596, 1024)
  (image_trs): Linear(in_features=1024, out_features=64, bias=True)
  (text_embedding): Embedding(99596, 384)
  (text_trs): Linear(in_features=384, out_features=64, bias=True)
  (MLP_user): Linear(in_features=128, out_features=64, bias=True)
  (v_gcn): GCN(
    (MLP): Linear(in_features=1024, out_features=128, bias=True)
    (MLP_1): Linear(in_features=128, out_features=64, bias=True)
    (conv_embed_1): Base_gcn(64, 64)
  )
  (t_gcn): GCN(
    (MLP): Linear(in_features=384, out_features=128, bias=True)
    (MLP_1): Linear(in_features=128, out_features=64, bias=True)
    (conv_embed_1): Base_gcn(64, 64)
  )
  (user_graph): User_Graph_sample()
  (iladt_loss): ILADTLoss(
    (i2t_map): Linear(in_features=64, out_features=64, bias=False)
    (t2i_map): Linear(in_features=64, out_features=64, bias=False)
    (i2d_map): Linear(in_features=64, out_features=64, bias=False)
    (d2i_map): Linear(in_features=64, out_features=64, bias=False)
    (t2d_map): Linear(in_features=64, out_features=64, bias=False)
    (d2t_map): Linear(in_features=64, out_features=64, bias=False)
  )
  (cla_loss): CLALoss(
    (feat2code): Linear(in_features=64, out_features=10, bias=False)
    (ii2code): Linear(in_features=64, out_features=10, bias=False)
  )
)
Trainable parameters: 142596408.0
Fri 16 Jan 2026 10:14:35 INFO Mixed Precision Training (FP16) enabled - expect ~40-50% memory reduction
Fri 16 Jan 2026 10:14:35 INFO ✅ Model compiled with torch.compile - expect ~20-30% speedup after first epoch
Fri 16 Jan 2026 10:14:35 INFO Initialized tot_item_num: 99596
Fri 16 Jan 2026 10:14:35 INFO Computing item popularity from training data...
…
The number of inters: 39418
The sparsity of the dataset: 99.97778789450958%
Sat 17 Jan 2026 01:04:35 INFO 
====Testing====
Music4All
The number of users: 7662
Average actions of users: 5.498825371965545
The number of items: 24618
Average actions of items: 1.7114306604923226
The number of inters: 42132
The sparsity of the dataset: 99.97766339519065%
Sat 17 Jan 2026 01:04:38 INFO 

=================================


Sat 17 Jan 2026 01:04:38 INFO =========1/1: Parameters:['seed', 'aggr_mode', 'reg_weight', 'learning_rate']=(999, 'add', 0.001, 0.0001)=======
Sat 17 Jan 2026 01:35:06 INFO DRAGON(
  (MLP_v): Linear(in_features=64, out_features=64, bias=False)
  (MLP_t): Linear(in_features=64, out_features=64, bias=False)
  (image_embedding): Embedding(99596, 1024)
  (image_trs): Linear(in_features=1024, out_features=64, bias=True)
  (MLP_user): Linear(in_features=128, out_features=64, bias=True)
  (v_gcn): GCN(
    (MLP): Linear(in_features=1024, out_features=128, bias=True)
    (MLP_1): Linear(in_features=128, out_features=64, bias=True)
    (conv_embed_1): Base_gcn(64, 64)
  )
  (user_graph): User_Graph_sample()
)
Trainable parameters: 103339382
Sat 17 Jan 2026 01:35:06 INFO Mixed Precision Training (FP16) enabled - expect ~40-50% memory reduction
Sat 17 Jan 2026 01:35:07 INFO ✅ Model compiled with torch.compile - expect ~20-30% speedup after first epoch
Sat 17 Jan 2026 01:35:07 INFO Initialized tot_item_num: 99596
…
