…
Average actions of items: 8.5552111912746
The number of inters: 505151
The sparsity of the dataset: 99.93943213315913%
Wed 14 Jan 2026 08:36:46 INFO 
====Testing====
Music4All
The number of users: 14125
Average actions of users: 36.25819469026548
The number of items: 59639
Average actions of items: 8.587451164506447
The number of inters: 512147
The sparsity of the dataset: 99.93920388556101%
Wed 14 Jan 2026 08:36:50 INFO 

=================================


Wed 14 Jan 2026 08:36:50 INFO =========1/1: Parameters:['seed', 'dropout', 'reg_weight']=(999, 0.8, 0.0)=======
Wed 14 Jan 2026 08:36:53 INFO FREEDOM(
  (user_embedding): Embedding(14125, 64)
  (item_id_embedding): Embedding(80735, 64)
  (image_embedding): Embedding(80735, 1024)
  (image_trs): Linear(in_features=1024, out_features=64, bias=True)
  (text_embedding): Embedding(80735, 384)
  (text_trs): Linear(in_features=384, out_features=64, bias=True)
  (iladt_loss): ILADTLoss(
    (i2t_map): Linear(in_features=64, out_features=64, bias=False)
    (t2i_map): Linear(in_features=64, out_features=64, bias=False)
    (i2d_map): Linear(in_features=64, out_features=64, bias=False)
    (d2i_map): Linear(in_features=64, out_features=64, bias=False)
    (t2d_map): Linear(in_features=64, out_features=64, bias=False)
    (d2t_map): Linear(in_features=64, out_features=64, bias=False)
  )
  (cla_loss): CLALoss(
    (feat2code): Linear(in_features=64, out_features=10, bias=False)
    (ii2code): Linear(in_features=64, out_features=10, bias=False)
  )
)
Trainable parameters: 119862018.0
Wed 14 Jan 2026 08:36:53 INFO Mixed Precision Training (FP16) enabled - expect ~40-50% memory reduction
Wed 14 Jan 2026 08:36:53 INFO ✅ Model compiled with torch.compile - expect ~20-30% speedup after first epoch
Wed 14 Jan 2026 08:36:53 INFO Initialized tot_item_num: 80735
Wed 14 Jan 2026 08:39:07 INFO Epoch 0 training [time: 133.70s, Train loss: 380.1160]
…
