…
Average actions of items: 1.6639088222878853
The number of inters: 39418
The sparsity of the dataset: 99.97778789450958%
Wed 14 Jan 2026 22:05:41 INFO 
====Testing====
Music4All
The number of users: 7662
Average actions of users: 5.498825371965545
The number of items: 24618
Average actions of items: 1.7114306604923226
The number of inters: 42132
The sparsity of the dataset: 99.97766339519065%
Wed 14 Jan 2026 22:05:43 INFO 

=================================


Wed 14 Jan 2026 22:05:43 INFO =========1/1: Parameters:['seed', 'dropout', 'reg_weight']=(999, 0.8, 0.0)=======
Wed 14 Jan 2026 22:55:59 INFO FREEDOM(
  (user_embedding): Embedding(14127, 64)
  (item_id_embedding): Embedding(99596, 64)
  (image_embedding): Embedding(99596, 1024)
  (image_trs): Linear(in_features=1024, out_features=64, bias=True)
  (text_embedding): Embedding(99596, 384)
  (text_trs): Linear(in_features=384, out_features=64, bias=True)
)
Trainable parameters: 147599680
Wed 14 Jan 2026 22:55:59 INFO Mixed Precision Training (FP16) enabled - expect ~40-50% memory reduction
Wed 14 Jan 2026 22:55:59 INFO ✅ Model compiled with torch.compile - expect ~20-30% speedup after first epoch
Wed 14 Jan 2026 22:55:59 INFO Initialized tot_item_num: 99596
Wed 14 Jan 2026 22:55:59 INFO Computing item popularity from training data...
…
Average actions of items: 1.6639088222878853
The number of inters: 39418
The sparsity of the dataset: 99.97778789450958%
Thu 15 Jan 2026 05:45:11 INFO 
====Testing====
Music4All
The number of users: 7662
Average actions of users: 5.498825371965545
The number of items: 24618
Average actions of items: 1.7114306604923226
The number of inters: 42132
The sparsity of the dataset: 99.97766339519065%
Thu 15 Jan 2026 05:45:15 INFO 

=================================


Thu 15 Jan 2026 05:45:15 INFO =========1/1: Parameters:['seed', 'dropout', 'reg_weight']=(999, 0.8, 0.0)=======
Thu 15 Jan 2026 05:45:20 INFO FREEDOM(
  (user_embedding): Embedding(14127, 64)
  (item_id_embedding): Embedding(99596, 64)
  (image_embedding): Embedding(99596, 1024)
  (image_trs): Linear(in_features=1024, out_features=64, bias=True)
  (text_embedding): Embedding(99596, 384)
  (text_trs): Linear(in_features=384, out_features=64, bias=True)
  (iladt_loss): ILADTLoss(
    (i2t_map): Linear(in_features=64, out_features=64, bias=False)
    (t2i_map): Linear(in_features=64, out_features=64, bias=False)
    (i2d_map): Linear(in_features=64, out_features=64, bias=False)
    (d2i_map): Linear(in_features=64, out_features=64, bias=False)
    (t2d_map): Linear(in_features=64, out_features=64, bias=False)
    (d2t_map): Linear(in_features=64, out_features=64, bias=False)
  )
  (cla_loss): CLALoss(
    (feat2code): Linear(in_features=64, out_features=10, bias=False)
    (ii2code): Linear(in_features=64, out_features=10, bias=False)
  )
)
Trainable parameters: 147625538.0
Thu 15 Jan 2026 05:45:20 INFO Mixed Precision Training (FP16) enabled - expect ~40-50% memory reduction
Thu 15 Jan 2026 05:45:20 INFO ✅ Model compiled with torch.compile - expect ~20-30% speedup after first epoch
Thu 15 Jan 2026 05:45:20 INFO Initialized tot_item_num: 99596
Thu 15 Jan 2026 05:45:20 INFO Computing item popularity from training data...
…
