…
The number of inters: 499501
The sparsity of the dataset: 99.9398792900849%
Wed 19 Nov 2025 10:59:02 INFO 
====Testing====
Music4All
The number of users: 14125
Average actions of users: 36.65819469026549
The number of items: 59814
Average actions of items: 8.656786036713813
The number of inters: 517797
The sparsity of the dataset: 99.9387130192091%
Wed 19 Nov 2025 10:59:07 INFO 

=================================


Wed 19 Nov 2025 10:59:07 INFO =========1/30: Parameters:['seed', 'reg_weight', 'learning_rate']=(999, 0, 0.0001)=======
Wed 19 Nov 2025 10:59:09 INFO MMGCN(
  (v_gcn): GCN(
    (MLP): Linear(in_features=1024, out_features=256, bias=True)
    (conv_embed_1): BaseModel(256, 256)
    (linear_layer1): Linear(in_features=256, out_features=64, bias=True)
    (g_layer1): Linear(in_features=320, out_features=64, bias=True)
    (conv_embed_2): BaseModel(64, 64)
    (linear_layer2): Linear(in_features=64, out_features=64, bias=True)
    (g_layer2): Linear(in_features=128, out_features=64, bias=True)
    (conv_embed_3): BaseModel(64, 64)
    (linear_layer3): Linear(in_features=64, out_features=64, bias=True)
    (g_layer3): Linear(in_features=128, out_features=64, bias=True)
  )
  (t_gcn): GCN(
    (conv_embed_1): BaseModel(384, 384)
    (linear_layer1): Linear(in_features=384, out_features=64, bias=True)
    (g_layer1): Linear(in_features=448, out_features=64, bias=True)
    (conv_embed_2): BaseModel(64, 64)
    (linear_layer2): Linear(in_features=64, out_features=64, bias=True)
    (g_layer2): Linear(in_features=128, out_features=64, bias=True)
    (conv_embed_3): BaseModel(64, 64)
    (linear_layer3): Linear(in_features=64, out_features=64, bias=True)
    (g_layer3): Linear(in_features=128, out_features=64, bias=True)
  )
)
Trainable parameters: 631808
Wed 19 Nov 2025 12:13:41 INFO epoch 0 training [time: 4472.28s, train loss: 454.4015]
Wed 19 Nov 2025 12:13:44 INFO epoch 0 evaluating [time: 1.17s, valid_score: 0.011600]
Wed 19 Nov 2025 12:13:44 INFO valid result: 
recall@5: 0.0047    recall@10: 0.0079    recall@20: 0.0116    recall@50: 0.0196    ndcg@5: 0.0334    ndcg@10: 0.0293    ndcg@20: 0.0235    ndcg@50: 0.0219    precision@5: 0.0314    precision@10: 0.0263    precision@20: 0.0195    precision@50: 0.0134    map@5: 0.0232    map@10: 0.0168    map@20: 0.0097    map@50: 0.0064    
…
