…
The number of inters: 499501
The sparsity of the dataset: 99.9398792900849%
Sat 22 Nov 2025 16:22:30 INFO 
====Testing====
Music4All
The number of users: 14125
Average actions of users: 36.65819469026549
The number of items: 59814
Average actions of items: 8.656786036713813
The number of inters: 517797
The sparsity of the dataset: 99.9387130192091%
Sat 22 Nov 2025 16:22:40 INFO 

=================================


Sat 22 Nov 2025 16:22:40 INFO =========1/30: Parameters:['seed', 'reg_weight', 'learning_rate']=(999, 0, 0.0001)=======
Sat 22 Nov 2025 16:22:42 INFO MMGCN(
  (v_gcn): GCN(
    (MLP): Linear(in_features=1024, out_features=256, bias=True)
    (conv_embed_1): BaseModel(256, 256)
    (linear_layer1): Linear(in_features=256, out_features=64, bias=True)
    (g_layer1): Linear(in_features=320, out_features=64, bias=True)
    (conv_embed_2): BaseModel(64, 64)
    (linear_layer2): Linear(in_features=64, out_features=64, bias=True)
    (g_layer2): Linear(in_features=128, out_features=64, bias=True)
    (conv_embed_3): BaseModel(64, 64)
    (linear_layer3): Linear(in_features=64, out_features=64, bias=True)
    (g_layer3): Linear(in_features=128, out_features=64, bias=True)
  )
  (t_gcn): GCN(
    (conv_embed_1): BaseModel(384, 384)
    (linear_layer1): Linear(in_features=384, out_features=64, bias=True)
    (g_layer1): Linear(in_features=448, out_features=64, bias=True)
    (conv_embed_2): BaseModel(64, 64)
    (linear_layer2): Linear(in_features=64, out_features=64, bias=True)
    (g_layer2): Linear(in_features=128, out_features=64, bias=True)
    (conv_embed_3): BaseModel(64, 64)
    (linear_layer3): Linear(in_features=64, out_features=64, bias=True)
    (g_layer3): Linear(in_features=128, out_features=64, bias=True)
  )
)
Trainable parameters: 631808
Sat 22 Nov 2025 16:22:45 INFO ✅ Model compiled with torch.compile - expect ~20-30% speedup after first epoch
Sat 22 Nov 2025 17:05:40 INFO epoch 0 training [time: 2575.47s, train loss: 263.1715]
Sat 22 Nov 2025 17:05:43 INFO epoch 0 evaluating [time: 1.16s, valid_score: 0.011500]
Sat 22 Nov 2025 17:05:43 INFO valid result: 
…
