…
The number of inters: 40150
The sparsity of the dataset: 99.99389670773579%
Sun 16 Nov 2025 23:38:04 INFO 
====Testing====
clothing
The number of users: 39387
Average actions of users: 1.0457511361616778
The number of items: 16803
Average actions of items: 2.451288460393977
The number of inters: 41189
The sparsity of the dataset: 99.99377640221293%
Sun 16 Nov 2025 23:38:16 INFO 

=================================


Sun 16 Nov 2025 23:38:16 INFO =========1/30: Parameters:['seed', 'reg_weight', 'learning_rate']=(999, 0, 0.0001)=======
Sun 16 Nov 2025 23:38:20 INFO MMGCN(
  (v_gcn): GCN(
    (MLP): Linear(in_features=4096, out_features=256, bias=True)
    (conv_embed_1): BaseModel(256, 256)
    (linear_layer1): Linear(in_features=256, out_features=64, bias=True)
    (g_layer1): Linear(in_features=320, out_features=64, bias=True)
    (conv_embed_2): BaseModel(64, 64)
    (linear_layer2): Linear(in_features=64, out_features=64, bias=True)
    (g_layer2): Linear(in_features=128, out_features=64, bias=True)
    (conv_embed_3): BaseModel(64, 64)
    (linear_layer3): Linear(in_features=64, out_features=64, bias=True)
    (g_layer3): Linear(in_features=128, out_features=64, bias=True)
  )
  (t_gcn): GCN(
    (conv_embed_1): BaseModel(384, 384)
    (linear_layer1): Linear(in_features=384, out_features=64, bias=True)
    (g_layer1): Linear(in_features=448, out_features=64, bias=True)
    (conv_embed_2): BaseModel(64, 64)
    (linear_layer2): Linear(in_features=64, out_features=64, bias=True)
    (g_layer2): Linear(in_features=128, out_features=64, bias=True)
    (conv_embed_3): BaseModel(64, 64)
    (linear_layer3): Linear(in_features=64, out_features=64, bias=True)
    (g_layer3): Linear(in_features=128, out_features=64, bias=True)
  )
)
Trainable parameters: 1418240
Sun 16 Nov 2025 23:38:44 INFO epoch 0 training [time: 22.50s, train loss: 66.1830]
Sun 16 Nov 2025 23:39:07 INFO epoch 0 evaluating [time: 11.04s, valid_score: 0.000600]
Sun 16 Nov 2025 23:39:07 INFO valid result: 
recall@5: 0.0002    recall@10: 0.0002    recall@20: 0.0006    recall@50: 0.0018    ndcg@5: 0.0001    ndcg@10: 0.0001    ndcg@20: 0.0002    ndcg@50: 0.0004    precision@5: 0.0000    precision@10: 0.0000    precision@20: 0.0000    precision@50: 0.0000    map@5: 0.0001    map@10: 0.0001    map@20: 0.0001    map@50: 0.0001    
…
