…
Average actions of items: 8.5552111912746
The number of inters: 505151
The sparsity of the dataset: 99.93943213315913%
Sun 11 Jan 2026 23:24:34 INFO 
====Testing====
Music4All
The number of users: 14125
Average actions of users: 36.25819469026548
The number of items: 59639
Average actions of items: 8.587451164506447
The number of inters: 512147
The sparsity of the dataset: 99.93920388556101%
Sun 11 Jan 2026 23:24:44 INFO 

=================================


Sun 11 Jan 2026 23:24:44 INFO =========1/1: Parameters:['seed', 'reg_weight']=(999, 1.0)=======
Sun 11 Jan 2026 23:24:45 INFO VBPR(
  (item_linear): Linear(in_features=1408, out_features=64, bias=True)
  (loss): BPRLoss()
  (reg_loss): EmbLoss()
  (iladt_loss): ILADTLoss(
    (i2t_map): Linear(in_features=64, out_features=64, bias=False)
    (t2i_map): Linear(in_features=64, out_features=64, bias=False)
    (i2d_map): Linear(in_features=64, out_features=64, bias=False)
    (d2i_map): Linear(in_features=64, out_features=64, bias=False)
    (t2d_map): Linear(in_features=64, out_features=64, bias=False)
    (d2t_map): Linear(in_features=64, out_features=64, bias=False)
  )
  (cla_loss): CLALoss(
    (feat2code): Linear(in_features=64, out_features=10, bias=False)
    (ii2code): Linear(in_features=64, out_features=10, bias=False)
  )
  (v_linear): Linear(in_features=1024, out_features=64, bias=True)
  (t_linear): Linear(in_features=384, out_features=64, bias=True)
)
Trainable parameters: 7181314.0
Sun 11 Jan 2026 23:24:47 INFO ✅ Model compiled with torch.compile - expect ~20-30% speedup after first epoch
Sun 11 Jan 2026 23:24:47 INFO Initialized tot_item_num: 80735
Sun 11 Jan 2026 23:26:37 INFO Epoch 0 training [time: 109.61s, Train loss: 1072.0941]
Sun 11 Jan 2026 23:26:39 INFO Epoch 0: valid_score: 0.0038
Sun 11 Jan 2026 23:26:39 INFO Valid result: recall@20: 0.0038    ndcg@20: 0.0066    precision@20: 0.0065    map@20: 0.0014    
…
